HGNN_Model.pth (torch, 274613 bytes, 24 tensors)

convs.0.patient__takes__drug.lin_l.weight f4 [64, 64]
0	0xbd02a856	-0.03189882
1	0xbe265e37	-0.16246878
2	0xbcd4d09f	-0.025978385
3	0xbe386d90	-0.18010545
4	0xbe2aa481	-0.16664316
5	0x3d6666a0	0.056250215
6	0x3da9eef9	0.082975335
7	0x3d88f035	0.06686441
8	0xbd9c9399	-0.076453395
9	0x3dc06fe0	0.093963385
10	0x3c969b6c	0.018384658
11	0xbbd73bfa	-0.006568429
12	0xbd14266b	-0.03616945
13	0xbe2f6d4e	-0.1713154
14	0x3d901d4c	0.07036838
15	0xbc96ae8d	-0.01839378
16	0xbe0d3738	-0.13790596
17	0x3c7a430b	0.015274773
18	0x3b39baa1	0.002834
19	0xbc4a1403	-0.012333873
20	0x3e1cb14a	0.15302005
21	0x3cf29233	0.029610729
22	0xbe25c609	-0.16188826
23	0x3e357cd0	0.17723393
24	0x3dd0b3e7	0.10190564
25	0x3c74627b	0.014916058
26	0x3e0d3d2f	0.13792871
27	0x3da2892d	0.079363205
28	0xbc90e9bb	-0.017689576
29	0x3da62ff9	0.08114619
30	0x3d65f862	0.05614508
31	0xbdb11590	-0.08646691
32	0xbe1c4b10	-0.15263009
33	0xbd4ee636	-0.050512515
34	0x3e1bf19c	0.15228885
35	0xbe45c06e	-0.19311687
36	0x3e22e699	0.15908279
37	0xbe2d7878	-0.16940486
38	0x3db065b3	0.086131476
39	0x3d7a39db	0.06109033
40	0x3b713284	0.0036803791
41	0x3ddca455	0.10773531
42	0x3e09f5b3	0.13472633
43	0xbb9a96e4	-0.0047176946
44	0x3d1aa19b	0.037751775
45	0xbc776269	-0.015099146
46	0xbc57ea9b	-0.013178493
47	0xbe3a221d	-0.18177076
48	0xbdd4f0d0	-0.10397494
49	0x3ca321bd	0.019913549
50	0x3c6aa4af	0.01432149
51	0xbdfce9b4	-0.12349263
52	0xba043a5f	-0.00050440984
53	0x3d891f68	0.066954434
54	0xbc30aea4	-0.010783825
55	0x3e3a873d	0.18215652
56	0xbd7f116c	-0.062272474
57	0x3c9bcc93	0.019018447
58	0xbd796fdf	-0.060897704
59	0xbe0f570c	-0.1399805
60	0x3c27c385	0.010239487
61	0xbd4e8d4c	-0.05042772
62	0xbcdbb67a	-0.02682041
63	0xbdf7319d	-0.1207001
64	0xbe346487	-0.17616473
65	0xbca5072b	-0.02014502
66	0xbda16f7c	-0.07882592
67	0x3c0a8eec	0.008456927
68	0x3d5d772d	0.054068733
69	0xbd224136	-0.03961297
70	0xbe0b6b0d	-0.13615055
71	0x3d7a7f44	0.061156526
72	0xbd515978	-0.051110715
73	0xbe20c595	-0.15700372
74	0x3cac7fba	0.021056999
75	0xbc25d87e	-0.010122417
76	0x3d5bc866	0.05365791
77	0x3e0c3c4c	0.13694876
78	0xbe0183d0	-0.12647939
79	0xbb6a916e	-0.003579225
80	0x3d8bdd17	0.06829279
81	0xbcd08e02	-0.02545834
82	0xbdd7629e	-0.105168566
83	0x3cd516f5	0.026011923
84	0xbab04932	-0.0013449548
85	0xbd3725bb	-0.044713717
86	0xbd2ac257	-0.041689243
87	0xbe0a5f80	-0.13512993
88	0x3c6b754a	0.014371226
89	0xbdbefa0b	-0.09325036
90	0xbce1dcdd	-0.027571136
91	0x3c106142	0.008812251
92	0xbe1ac646	-0.15114698
93	0x3c5d02d5	0.013489445
94	0xbdd69657	-0.10477894
95	0x3d7fc60e	0.06244474
96	0x3e13e7df	0.1444392
97	0x3d03fdbb	0.032224398
98	0xbe3d2ba2	-0.18473676
99	0x3d6661f5	0.056245763
100	0xbdb742bf	-0.08948278
101	0x3dad31da	0.08456774
102	0x3b687cd5	0.0035474796
103	0xbd940b1f	-0.07228684
104	0xbd786766	-0.060645483
105	0xbce3b520	-0.027796328
106	0xbdcd9b1e	-0.10039352
107	0xbcb08000	-0.02154541
108	0x3bb037b0	0.005377732
109	0xbd21da6b	-0.03951494
110	0x3c8e4022	0.017364565
111	0x3e25b5b8	0.16182601
112	0xbcea650b	-0.028612634
113	0xbde167e0	-0.11006141
114	0x3d1a4f36	0.037673198
115	0xbb477428	-0.0030434225
116	0x3e074496	0.13209757
117	0xbd8ea656	-0.0696532
118	0x3b7f370b	0.003894272
119	0xbd81be74	-0.06335154
120	0xbc9cb397	-0.019128604
121	0xbdb759e7	-0.089526944
122	0xbc860971	-0.016361924
123	0xbc04a197	-0.008095167
124	0xbc76d6d9	-0.015065872
125	0x3bbf3c7d	0.005836068
126	0xbda2c857	-0.07948368
127	0xbd3a6140	-0.0455029
128	0xbd17d15a	-0.037064888
129	0x3cba6c47	0.022756709
130	0x3c1c61ca	0.009544799
131	0x3b770fe9	0.0037698692
132	0x3d45dfb0	0.04830903
133	0xbd0d9cc5	-0.034573335
134	0xbb8dc8d2	-0.004326918
135	0xbd1586ea	-0.036505617
136	0xbbbeb7f0	-0.005820267
137	0x3dd4bc92	0.103875294
138	0x3d99e936	0.075151846
139	0xbde04299	-0.109502025
140	0xbda8f29c	-0.08249399
141	0xbde5ce75	-0.11221019
142	0xbda35461	-0.079750784
143	0x3ca15099	0.019691752
144	0x3b7cfc2a	0.003860245
145	0xbdf6404e	-0.12023984
146	0xbbd02932	-0.006352567
147	0x3d8e8d13	0.069605015
148	0x3d00f5b0	0.031484306
149	0xbddb5b64	-0.10710791
150	0x3de84061	0.11340404
151	0xbc1e2049	-0.009651252
152	0x3dfabf5f	0.122435324
153	0x3e5f0385	0.21778686
154	0x3dde8529	0.10865242
155	0xbd6e8aae	-0.058237724
156	0x3e06a734	0.1314972
157	0xbd479852	-0.04872925
158	0x3baf5bf7	0.0053515392
159	0xbe00937c	-0.12556261
160	0x3cd33e0b	0.02578642
161	0xbc971382	-0.01844192
162	0xbc67d79e	-0.014150528
163	0xbd175a25	-0.036951203
164	0x3d8affd3	0.06787076
165	0x3cc299c5	0.023754964
166	0xbd7d57cc	-0.061851308
167	0x3bbdd882	0.005793632
168	0x3d5239f7	0.05132481
169	0x3e3d3e81	0.18480875
170	0x3df9251c	0.12165281
171	0x3dd0fc8e	0.10204421
172	0xbd9361b8	-0.07196373
173	0x3dccf6b1	0.1000799
174	0xbda1c287	-0.07898431
175	0x3d0f947a	0.035053708
176	0xbdecf363	-0.1156986
177	0x3d88efba	0.06686349
178	0xbd8d539b	-0.06900712
179	0x3d2bb752	0.041922875
180	0xbde809dd	-0.11330006
181	0x3dc81eb0	0.09771478
182	0x3ca863ec	0.020555459
183	0x3d52c617	0.051458444
184	0xbd1c387b	-0.0381398
185	0x3d84966a	0.06474002
186	0x3e172240	0.14759159
187	0x3c82acdd	0.015951568
188	0x3d85e24e	0.06537305
189	0xbcc867e4	-0.024463601
190	0x3e08d3f8	0.1336211
191	0xbe0b73d2	-0.136184
192	0xbd1838a3	-0.037163388
193	0x3d1d5cb9	0.038418505
194	0x3d5c6f27	0.05381694
195	0x3c345d82	0.011008622
196	0x3dac1751	0.08402885
197	0x3e095bd6	0.13413939
198	0x3d943c16	0.07238023
199	0xbd623fd1	-0.05523664
200	0x3d3b5cf0	0.04574293
201	0x3d33ee4f	0.04392844
202	0xbdc20f8c	-0.094756216
203	0x3d45c9e8	0.048288256
204	0xbd41453a	-0.04718516
205	0xbd35aaad	-0.044352222
206	0x3d8e2ffd	0.06942747
207	0x3dd2c841	0.10292102
208	0xbde2092e	-0.11036907
209	0xbe001c15	-0.12510712
210	0xbda16e76	-0.07882397
211	0x3e187971	0.14890076
212	0x3dab55d1	0.083659776
213	0x3da5736d	0.08078656
214	0xbd7051d0	-0.058671772
215	0x3d5338a3	0.051567685
216	0x3c90dfc5	0.017684827
217	0x3ce871c1	0.028374555
218	0x3d85b715	0.06529061
219	0x3d9c15f4	0.07621375
220	0xbd1ecd44	-0.038769975
221	0x3d606b20	0.054789662
222	0x3e1fbc35	0.15599139
223	0xbdb2f0b3	-0.08737316
224	0x3d60c60e	0.05487638
225	0x3d6f783a	0.058464266
226	0xbd669fb8	-0.056304663
227	0x3c85918a	0.01630475
228	0xbd1799a2	-0.03701175
229	0x390749a8	0.00012902042
230	0x3d36bf6d	0.04461615
231	0xbdf5695f	-0.119829886
232	0x3d87666f	0.066113345
233	0xbda756f6	-0.08170883
234	0x3db79a06	0.089649245
235	0xbd84f44c	-0.064919084
236	0xbe0bf991	-0.13669421
237	0xbde172d7	-0.11008232
238	0xbde5ee1f	-0.112270586
239	0xbe08344e	-0.13301203
240	0x3d5e20e2	0.05423058
241	0xbd4d0d3f	-0.05006146
242	0xbe079ec2	-0.13244155
243	0xbc454f19	-0.012042784
244	0xbca74950	-0.0204207
245	0xbe060a5a	-0.13089886
246	0x3d602c57	0.054729786
247	0xbd5c209d	-0.05374204
248	0x3e10cda8	0.14140952
249	0x3e0ab5fd	0.13545986
250	0xbd13a34e	-0.03604441
251	0x3c312d98	0.010814093
252	0xbd45f62e	-0.04833048
253	0xbd42437c	-0.04742764
254	0x3d520902	0.05127812
255	0x3d3f1dd2	0.0466593

convs.0.patient__takes__drug.lin_l.bias f4 [64]
0	0x3e3e7f92	0.18603352
1	0xbe2ca6a9	-0.16860451
2	0xbbf7ca31	-0.007561945
3	0x3d880ae0	0.06642699
4	0xbd77b6fc	-0.060477242
5	0x3d11e293	0.03561647
6	0xbdb031ea	-0.0860327
7	0x39cd41f9	0.000391498
8	0xbe06d683	-0.13167767
9	0x3da6d550	0.08146155
10	0xbdd5ec2f	-0.10445439
11	0x3d80db14	0.06291786
12	0xbb7148c2	-0.0036817049
13	0xbd2ccb94	-0.042186335
14	0x3c814ab8	0.015782699
15	0x3ba0bef2	0.004905575
16	0xbd0d48c9	-0.03449324
17	0x3d9fcccd	0.078027345
18	0xbc391957	-0.011297545
19	0xbe3b5201	-0.18293001
20	0xbd38729b	-0.04503117
21	0x3df7a3bc	0.12091777
22	0xbcdea1bb	-0.027176728
23	0xbe25179e	-0.1612229
24	0xbc9f64b4	-0.019457199
25	0xbda82f95	-0.082122006
26	0x3d861fd2	0.06549038
27	0xbe22dd71	-0.15904786
28	0xbc156f43	-0.009120765
29	0x3db89db0	0.090144515
30	0xbe12303e	-0.14276215
31	0x3e1da900	0.153965
32	0xbe2f57dc	-0.1712336
33	0xbe1cf867	-0.15329133
34	0xbd98f856	-0.07469241
35	0xbd9c2906	-0.07625012
36	0xbdc318dd	-0.09526227
37	0xbcf8078e	-0.03027704
38	0xbe24e0d0	-0.16101384
39	0xbd1755d0	-0.03694707
40	0xbc070e22	-0.008243116
41	0x3b9190bf	0.004442304
42	0xbd4ffe6f	-0.050779756
43	0xbd45f86f	-0.048332628
44	0xbddc5478	-0.10758299
45	0xbbba396c	-0.0056831148
46	0xbe32de14	-0.17467529
47	0xbe07f6ba	-0.13277712
48	0xbdd324ad	-0.1030973
49	0x3dd008a3	0.10157897
50	0xbc89272d	-0.016742313
51	0xbd403fcb	-0.046935838
52	0x3bc3fd87	0.0059811505
53	0xbdb4fa85	-0.08836845
54	0xbdb67dc2	-0.08910705
55	0xbd000d42	-0.031262644
56	0xbdb5e6f2	-0.0888194
57	0xbe073e1a	-0.13207284
58	0xbe3a786d	-0.18210001
59	0xbdaf1181	-0.085482605
60	0xbd80cfe3	-0.06289651
61	0xbe311114	-0.17291671
62	0xba4286a2	-0.00074205745
63	0xbd9088db	-0.07057353

convs.0.patient__takes__drug.lin_r.weight f4 [64, 64]
0	0x3d63534a	0.055499353
1	0xbdc90afe	-0.0981655
2	0xbcb2451f	-0.021761475
3	0xbd9ee212	-0.07757963
4	0x3d9d8317	0.07691019
5	0xbd691b1b	-0.056910615
6	0x3cb9d6ef	0.022685496
7	0x3df4b45c	0.11948463
8	0xbe70705f	-0.23480366
9	0x3db0b8df	0.08629011
10	0xbd98a806	-0.07453923
11	0x3e159143	0.14606194
12	0x3d567c31	0.052364532
13	0xbddd95d9	-0.10819597
14	0xbb84a799	-0.0040482995
15	0xbd70fb1f	-0.058833238
16	0x3e22d41e	0.15901229
17	0xbdc22ceb	-0.09481224
18	0xbe29db5f	-0.1658759
19	0xbc3df02d	-0.011592907
20	0xbcbf2490	-0.023332864
21	0x3d28e5b3	0.041234683
22	0x3d7c7040	0.061630487
23	0x3dc7075c	0.097182006
24	0x3c660056	0.014038166
25	0x3df2bd6a	0.11852534
26	0x3dadef81	0.08492947
27	0x3d96d141	0.07364131
28	0x3e36da14	0.17856628
29	0x3d4913f9	0.049091313
30	0x3e03f663	0.12886958
31	0x3d267ece	0.040648274
32	0xbcf233e8	-0.029565766
33	0x3c937c1b	0.018003514
34	0x3cd99ad1	0.02656308
35	0xbdd142e0	-0.102178335
36	0x3d54ce66	0.05195465
37	0xbe038e6f	-0.12847303
38	0xbe37d2d6	-0.17951521
39	0x3ddbfa6e	0.10741125
40	0xbddb9c68	-0.107231915
41	0x3d3e4bfa	0.046459176
42	0x3a72af5e	0.0009257699
43	0x3d235c3f	0.039882895
44	0xbdd164e4	-0.102243215
45	0x3d478d1f	0.048718568
46	0xbdc74cb0	-0.09731424
47	0x3d6bac04	0.057537094
48	0x3dd83c1c	0.1055834
49	0x3c684294	0.01417603
50	0x3d8e042d	0.0693439
51	0xbe14f99c	-0.14548343
52	0x3d994769	0.074843235
53	0x3dc1e5cd	0.09467659
54	0x3dc34d91	0.09536279
55	0x3cf93c45	0.030424247
56	0x3e0d5af4	0.13804227
57	0x3d954fd2	0.07290615
58	0x3e2fca50	0.1716702
59	0x3e0fd9a7	0.14047872
60	0xbdfe2120	-0.12408662
61	0x3cfc0e4e	0.03076854
62	0xbd84e91a	-0.06489773
63	0x3d096079	0.03353927
64	0x3b777b64	0.0037762756
65	0xbd55e944	-0.052224413
66	0xbcb258a0	-0.021770775
67	0xbc230adb	-0.009951319
68	0xbcb3da0a	-0.021954555
69	0x3cc6ca87	0.024266494
70	0xbdc6164c	-0.096722215
71	0x3c729c4a	0.01480777
72	0xbd0e43f1	-0.034732763
73	0xbe012a02	-0.12613681
74	0x3d4c66d6	0.04990276
75	0xbd7ce8a9	-0.06174532
76	0xbd45dc52	-0.048305817
77	0xbd01aed4	-0.03166087
78	0xbd1c6a41	-0.03818727
79	0x3d1afd86	0.037839435
80	0x3d8661f4	0.06561652
81	0xbd1f06c4	-0.03882481
82	0xbcfe6ce0	-0.031057775
83	0x3d2419b8	0.04006359
84	0x3dbc22e3	0.091863416
85	0xbe233e64	-0.15941769
86	0xbda4227d	-0.080143906
87	0x3c82d18e	0.015969064
88	0xbdab4161	-0.083620794
89	0xbe09e6af	-0.13466905
90	0xbd1a0ceb	-0.037609976
91	0xbe33f3c7	-0.17573462
92	0x3d0371db	0.032091003
93	0xbcaacf95	-0.020850936
94	0x3c23bf49	0.009994336
95	0xbd8f2d49	-0.06991059
96	0xbd6f7c0b	-0.058467906
97	0x3d9367b0	0.07197511
98	0x3c9b7e7e	0.018981215
99	0x3e42540b	0.18977372
100	0xbc4cf4d9	-0.012509548
101	0xbd8fb3cf	-0.07016718
102	0xbda30d66	-0.0796154
103	0xbe1bd0c4	-0.15216357
104	0x3dc45037	0.09585612
105	0xbaea59ac	-0.0017879508
106	0xbd2be684	-0.041967884
107	0x3bfd253c	0.007725386
108	0xbd9b61c7	-0.07587009
109	0x3d3331f4	0.04374881
110	0x3e0fc116	0.140385
111	0x3de21798	0.110396564
112	0xbd5648a2	-0.05231536
113	0xbc0f2792	-0.008737462
114	0x3d12fbbd	0.035884608
115	0x3d549b87	0.051906135
116	0xbe08cf0e	-0.13360235
117	0xbe2a72f8	-0.1664542
118	0x3c87d0ba	0.01657902
119	0x3dcd116c	0.100130886
120	0xbd9a491a	-0.07533474
121	0x3be887c1	0.0070962613
122	0xbd305330	-0.043048084
123	0x3ce53702	0.027980331
124	0x3c619fe4	0.013771031
125	0xbd98ea1d	-0.074665286
126	0xbd9e2ecc	-0.077237695
127	0xbdde7d17	-0.10863703
128	0xbe25b9c7	-0.1618415
129	0x3d79a1be	0.060945265
130	0xbbd5d6a2	-0.0065258304
131	0xbc3811b9	-0.011234694
132	0x3dc738c6	0.097276255
133	0xbdc7d640	-0.09757662
134	0x3d514318	0.051089376
135	0x3d4f2571	0.050572816
136	0x3d361d92	0.044461794
137	0x3e005165	0.1253105
138	0xbe49483d	-0.19656463
139	0xbcdef208	-0.027215019
140	0x3d46541a	0.04842005
141	0xbe127a0b	-0.14304368
142	0x3daa3c28	0.08312255
143	0xbd24cb3f	-0.040232893
144	0xbe06d0cc	-0.13165587
145	0x3dc8c179	0.09802527
146	0xbca68e2a	-0.020331461
147	0x3c405142	0.011738123
148	0xbe02da18	-0.12778509
149	0x3b9d6a88	0.0048039593
150	0xbce59c14	-0.028028525
151	0xbe1e7178	-0.15472972
152	0x3d709a15	0.058740694
153	0x3de41c82	0.1113825
154	0x3da70958	0.08156079
155	0x3b7bbb2a	0.003841112
156	0x3e11594b	0.14194219
157	0xbc2d31f6	-0.010570994
158	0x3d3d6cfb	0.04624651
159	0x3e19c2aa	0.15015665
160	0xbba379c7	-0.004988882
161	0xbc251356	-0.010075411
162	0xbd6dfbd8	-0.058101505
163	0xbc8b6c16	-0.017019313
164	0xbd5f4320	-0.054507375
165	0xbdda4822	-0.106582895
166	0xbd4cb375	-0.04997583
167	0x3cc06dfa	0.02348994
168	0xbe3e1274	-0.18561727
169	0x3d5c31e0	0.053758502
170	0xbe147e3e	-0.14501283
171	0x3cad13d9	0.021127628
172	0xbdd7ba60	-0.10533595
173	0xbd2bcf90	-0.041945994
174	0x3b4bd9cd	0.0031105161
175	0x3d2ea9a8	0.042642266
176	0xbd236fb3	-0.039901447
177	0x3e0cf442	0.13765052
178	0x3c112556	0.008858999
179	0x3cd96f94	0.026542462
180	0x3e27f003	0.16400151
181	0xbd8f210b	-0.06988724
182	0x3da9a582	0.08283521
183	0x3dad46f8	0.08460802
184	0xbd1d3609	-0.03838161
185	0x3c34d982	0.011038186
186	0x3db6e70a	0.08930786
187	0x3d32dd0b	0.043667834
188	0xbdfde85b	-0.12397834
189	0x3d92eb1f	0.07173752
190	0x3c18be44	0.009322707
191	0x3e0eda66	0.139505
192	0xbdf776a7	-0.12083178
193	0x3de11f4f	0.109923
194	0x3ba1ee81	0.004941762
195	0x3de61e71	0.11236275
196	0xbe1890ad	-0.1489894
197	0x3d768cff	0.060193058
198	0x3d9c54e3	0.07633378
199	0xbd9da35a	-0.076971725
200	0xbdf8b7a1	-0.121443994
201	0x3daccdfb	0.08437725
202	0x3dd9ac88	0.10628611
203	0x3e0370d4	0.1283601
204	0x3d86d079	0.06582732
205	0xbd8c439a	-0.068488315
206	0x3d4a793b	0.04943202
207	0xbbff7e94	-0.0077970717
208	0x3d732fb1	0.059371654
209	0xbd5cebcb	-0.053935807
210	0xbd3f3ea3	-0.046690594
211	0xbddee19e	-0.10882877
212	0xbd3a670f	-0.04550844
213	0xbe2018ac	-0.15634412
214	0xbc7a6ae8	-0.0152842775
215	0xbdcf78c6	-0.101304576
216	0xbdaf2a47	-0.08552986
217	0xbd7811a3	-0.060563695
218	0xbd82a1c4	-0.063785106
219	0x3dd6976e	0.10478102
220	0x3d421c4a	0.04739026
221	0x3cb0199c	0.021496587
222	0xbde82968	-0.113360226
223	0x3e13e944	0.14444453
224	0x3c6c80e3	0.014435026
225	0xbb2c1eb7	-0.0026263425
226	0x3d90dbf0	0.070732
227	0xbd3f2397	-0.0466648
228	0x3c9ba723	0.019000595
229	0x3e1df0b4	0.15423852
230	0xbd918025	-0.0710452
231	0xbca589b2	-0.02020726
232	0xbd924c59	-0.071434684
233	0x3da4a1d9	0.080386825
234	0x3ce1c464	0.027559467
235	0x3d215e1a	0.039396383
236	0x3bccfda1	0.006255821
237	0xbdad938d	-0.08475409
238	0xbdfd7c1a	-0.12377186
239	0x3d0937d5	0.03350051
240	0xbe0bf477	-0.13667475
241	0x3d7156d8	0.05892071
242	0xbd975d8a	-0.07390888
243	0x3daa0da2	0.083033815
244	0x3deaab38	0.11458439
245	0x3e261391	0.16218401
246	0x3dd3474a	0.10316332
247	0xbd90f307	-0.07077604
248	0xbd4afc7f	-0.049557205
249	0xbbb21824	-0.0054350067
250	0x3dbe199d	0.09282229
251	0x3bd8e868	0.006619502
252	0xbddf7542	-0.10911037
253	0x3b9072c8	0.0044082142
254	0x3da87806	0.08226018
255	0x3e09121f	0.13385819

convs.0.drug__taken_by__patient.lin_l.weight f4 [64, 64]
0	0xbc5cbfcd	-0.013473463
1	0xbc1de40d	-0.009636891
2	0x3e323993	0.17404775
3	0xbd4051ec	-0.046953127
4	0x3d82118d	0.06351004
5	0xbdc1fbc8	-0.094718516
6	0xbcf93b4d	-0.030423785
7	0xbd129428	-0.035785824
8	0xbc0efb8b	-0.008726965
9	0xbce85536	-0.028360944
10	0x3d08caf0	0.03339666
11	0x3df4d454	0.11954561
12	0xbd370c8e	-0.044689707
13	0xbcbd8d2a	-0.023138601
14	0xbb205e3e	-0.0024470235
15	0xbe277031	-0.16351391
16	0x3dac294f	0.084063165
17	0xbcc5c119	-0.024139928
18	0x3e0d70ce	0.13812563
19	0x3c67a9c7	0.014139599
20	0x3df0a92b	0.11751016
21	0xbbd8bed8	-0.006614547
22	0x39601050	0.00021368382
23	0x3e5bb488	0.21455586
24	0xbd193c66	-0.037411116
25	0xbe5f22c7	-0.2179061
26	0xbe0450da	-0.12921467
27	0xbdac969c	-0.08427164
28	0x3d7c60d1	0.06161577
29	0xbdd87721	-0.10569597
30	0x3e53d5d6	0.2068704
31	0x3c6c4b02	0.01442218
32	0x3cc323de	0.023820814
33	0x3e1b19c6	0.1514655
34	0x3d535171	0.05159134
35	0xbc49d36b	-0.012318472
36	0xbe02fb49	-0.1279117
37	0xbd8fb1dc	-0.07016346
38	0x3ddfe2f2	0.10931958
39	0xbe02b9b6	-0.12766156
40	0xbcf07632	-0.029353235
41	0x3d79c0ea	0.060974993
42	0x3dfda3a3	0.12384727
43	0x3d9b3867	0.07579117
44	0xbc3378ad	-0.010954064
45	0xbd920b23	-0.071310304
46	0xbd151584	-0.036397472
47	0x3d7c62d9	0.061617706
48	0xbdc38e46	-0.09548621
49	0x3c2379f7	0.009977809
50	0xbdf8e5fa	-0.121532395
51	0xbc89dd73	-0.016829228
52	0x3d946a55	0.07246844
53	0x3d613e52	0.054991074
54	0xbdcdba4a	-0.100452974
55	0x3e177650	0.14791226
56	0x3d25b908	0.040459663
57	0x3bbf808f	0.005844183
58	0x3c8f7ceb	0.01751562
59	0x3d292d38	0.04130289
60	0x3e2e1eea	0.1700398
61	0xbe0bb5d1	-0.13643576
62	0x3e253130	0.16132045
63	0x3d047202	0.03233529
64	0xbd9c15db	-0.07621356
65	0xbd1eb880	-0.03875017
66	0xbd778ec8	-0.0604389
67	0xbe1664a7	-0.14686833
68	0xbd7cfc89	-0.061764274
69	0x3ca36ebc	0.019950263
70	0x3cd6f306	0.02623893
71	0xbc66141c	-0.01404288
72	0xbe27de8f	-0.16393493
73	0xbd4bc3bf	-0.049747225
74	0xbd70f729	-0.05882946
75	0x3c8452b6	0.01615272
76	0xbd9b93c4	-0.075965434
77	0x3d98641d	0.0744097
78	0x3d21a10a	0.03946022
79	0x3e3fa0f8	0.18713748
80	0x3d9ab172	0.07553376
81	0xbd5386c0	-0.05164218
82	0x3bb38975	0.0054790326
83	0xbbb455b2	-0.0055033797
84	0xbd2d0482	-0.042240627
85	0xbdf59e86	-0.119931266
86	0x3d0ab860	0.03386724
87	0xbd2076de	-0.03917586
88	0x3a61ed7d	0.00086184574
89	0xbd8f43b1	-0.06995333
90	0x3c2755f7	0.010213367
91	0x3ca6f8a5	0.020382235
92	0xbd5e2ebf	-0.0542438
93	0xbe1d94bc	-0.15388769
94	0xbda4a5d3	-0.08039441
95	0xbc87f22c	-0.016594969
96	0xbd47bfa9	-0.048766766
97	0xbd9af978	-0.07567114
98	0xbd53427f	-0.051577087
99	0x3e022585	0.12709625
100	0xbdb1c973	-0.086810015
101	0x3d667589	0.056264434
102	0x3d1594e0	0.03651893
103	0xbdd2d887	-0.102952056
104	0xbca65c70	-0.02030775
105	0x3cc5bbed	0.024137462
106	0x3d20b4d8	0.039234966
107	0x3d124cf6	0.035717927
108	0xbaa7e87f	-0.0012810378
109	0xbb06a351	-0.0020544122
110	0x3d1d3cb7	0.03838798
111	0xbcc7a44d	-0.024370337
112	0x3d9d0f2e	0.07668911
113	0x3d7dea4d	0.061991025
114	0xbc354854	-0.011064608
115	0x3cb79683	0.022410637
116	0x3d045839	0.0323107
117	0xbdea824b	-0.11450633
118	0x3cf98d4d	0.030462885
119	0xbd95b40d	-0.073097326
120	0x3cafcd1c	0.021460108
121	0x3d0f5b7f	0.034999367
122	0x3d3e6ce5	0.04649057
123	0x3d366190	0.044526637
124	0x3d195e4c	0.037443444
125	0x3d208736	0.039191447
126	0xbcb3e92d	-0.021961773
127	0xbe279c19	-0.1636814
128	0x3954ea8e	0.00020305274
129	0xbd752ceb	-0.05985729
130	0x3d4863cd	0.048923302
131	0x3e170a03	0.14749913
132	0xbc85c692	-0.016330037
133	0x3c8ec077	0.017425759
134	0xbd82b119	-0.06381435
135	0xbcc3ba05	-0.023892412
136	0x3c97668c	0.018481515
137	0x3dd49e1e	0.10381721
138	0xbd97ece8	-0.07418233
139	0x3d7ef9f1	0.06225008
140	0xbdaf44d2	-0.08558048
141	0xbc2765b9	-0.010217124
142	0xbc8995e1	-0.0167951
143	0x3db02322	0.08600451
144	0xbe11525c	-0.14191574
145	0xbdc12c15	-0.09432236
146	0xbe31d61e	-0.17366835
147	0xbcbd0455	-0.023073355
148	0xbd0b5ac8	-0.034022123
149	0x3cfc18a3	0.030773466
150	0x3cac1846	0.021007668
151	0xbdea9a1b	-0.114551745
152	0x3d94496e	0.07240568
153	0x3d800bd7	0.06252258
154	0x3dbf48b6	0.093400404
155	0xbda95563	-0.08268239
156	0xbd0231ed	-0.031785894
157	0x3cb992fe	0.0226531
158	0x3c2fb0ba	0.010723287
159	0x3dba0419	0.09082813
160	0xbe1d72d0	-0.15375829
161	0x3b6e59f1	0.0036369527
162	0x3bb22696	0.0054367287
163	0xbe038bd5	-0.1284631
164	0xbe09968e	-0.13436338
165	0x3ce22f5b	0.027610471
166	0x3decfa11	0.11571134
167	0xbd287065	-0.041122813
168	0xbd85cb54	-0.065329224
169	0xbcde7707	-0.027156366
170	0x3d9934dc	0.07480785
171	0x3b8c8c1e	0.004289164
172	0x3d956381	0.072943695
173	0xbd181b59	-0.037135456
174	0xbdddd971	-0.10832489
175	0xbc4be845	-0.012445514
176	0x3d11f38d	0.03563266
177	0xbc8af50c	-0.01696255
178	0x3d6015e9	0.054708395
179	0x3cbd7c3a	0.023130525
180	0xbdabfbd3	-0.08397641
181	0xbce050d9	-0.027382301
182	0xbe192855	-0.14956792
183	0x3e218a47	0.15775405
184	0x3daf03a8	0.08545619
185	0xbd92b522	-0.071634546
186	0x3cdff743	0.027339583
187	0xbcfc55bf	-0.030802606
188	0x3bf8d943	0.007594259
189	0x3d022e68	0.031782538
190	0x3e1962df	0.14979123
191	0xbd80e4a1	-0.062936075
192	0x3d9ffdf3	0.07812109
193	0xbdbb007a	-0.0913095
194	0x3c0f64a0	0.008752018
195	0xbd6dc70a	-0.058051147
196	0xbc056e1b	-0.008143927
197	0xbca2baaa	-0.019864399
198	0xbdc844cc	-0.09778747
199	0xbdbd1cf3	-0.09234037
200	0x3da100e2	0.078614965
201	0x3d811c3c	0.063042134
202	0xbd97682c	-0.07392916
203	0x3c5b50bb	0.013385947
204	0x3e071c01	0.13194276
205	0xbc3ecd5c	-0.011645641
206	0xbd4a4ed4	-0.049391583
207	0xbced007a	-0.028930891
208	0x3e0d04bd	0.13771339
209	0x3d9f7ff6	0.077880785
210	0xbdc66b3a	-0.096884206
211	0xbde11754	-0.109907776
212	0xbd8cc41a	-0.06873341
213	0x3d85cbe8	0.06533033
214	0xba2d65a9	-0.0006614575
215	0xbd3db4a9	-0.04631487
216	0xbc3fad1c	-0.011698987
217	0xbde90787	-0.11378389
218	0xbd02a89f	-0.03189909
219	0xbb7537f6	-0.0037417389
220	0xbe6fdbdc	-0.23423713
221	0x3d52226a	0.05130235
222	0x3c081bce	0.00830741
223	0xbdb8e3f3	-0.09027853
224	0x3cc238f0	0.02370879
225	0x3da96c56	0.082726166
226	0xbdbc731e	-0.09201644
227	0x3de61ea7	0.11236315
228	0x3ca3ae43	0.019980555
229	0xbd6bd3c6	-0.05757501
230	0x3d1f4600	0.038885117
231	0xbc1859ae	-0.009298725
232	0xbca6f3b8	-0.020379886
233	0x3d4634aa	0.048390068
234	0xbd2aab42	-0.04166723
235	0x3dfbeaeb	0.123006664
236	0x3dbd3021	0.092376955
237	0xbcf46606	-0.029833805
238	0x3d96fb1c	0.07372114
239	0x3d21d037	0.03950521
240	0x3db06c18	0.08614367
241	0xbd551e7d	-0.05203103
242	0xbd196d03	-0.037457477
243	0x3d89de4f	0.06731855
244	0x3dfe02f0	0.12402904
245	0xbcf6bb9d	-0.030118758
246	0x3e1eff01	0.15526964
247	0x3bfcca6a	0.0077145593
248	0xbcdd6611	-0.027026208
249	0xbda21206	-0.07913594
250	0x3cf3f9b8	0.029782161
251	0xbda98a12	-0.08278288
252	0xbde97ba0	-0.11400533
253	0xbd503c38	-0.05083868
254	0xbdbeadc3	-0.09310486
255	0xbdaa081f	-0.0830233

convs.0.drug__taken_by__patient.lin_l.bias f4 [64]
0	0xbe31fabd	-0.17380805
1	0x3b898156	0.0041963262
2	0xbc815ecc	-0.015792273
3	0xbda7911b	-0.081819735
4	0xbd49c5de	-0.049260966
5	0x3dfcfb8e	0.12352668
6	0xbe372596	-0.17885432
7	0x3d57fee9	0.052733336
8	0xbdd53c6d	-0.10411916
9	0xbd554ceb	-0.052075308
10	0xba0ac7df	-0.00052940653
11	0xbd7d2336	-0.061801158
12	0xbd66d1ae	-0.05635231
13	0x3ca15e3d	0.019698257
14	0xbdd09609	-0.10184867
15	0xbe269b51	-0.16270186
16	0x3de82e0d	0.113369085
17	0xbe2edc12	-0.17076138
18	0xbe3cc3e9	-0.18434109
19	0x3d69cb6c	0.057078764
20	0xbcc0c43a	-0.023531068
21	0x3d29d438	0.041462153
22	0xbe30727a	-0.1723117
23	0xbdb41b64	-0.08794287
24	0xbd36b7d3	-0.044608902
25	0x3de76db7	0.11300223
26	0xbdf25c6f	-0.118340366
27	0xbe43075f	-0.1904578
28	0xbde07770	-0.10960281
29	0xbdf5b3a9	-0.11997158
30	0xbe38d940	-0.18051624
31	0x3e0d20cc	0.13782042
32	0xbe297315	-0.16547807
33	0x3b33c03e	0.0027427818
34	0x3d1a51f7	0.037675824
35	0xbd38a743	-0.04508139
36	0xbba4cc40	-0.0050292313
37	0x3ccb5398	0.024820134
38	0xbe0ff96f	-0.14059995
39	0x3dab366b	0.08359989
40	0x3dab8796	0.0837547
41	0x3c845e6f	0.01615831
42	0xbd33698a	-0.04380182
43	0xbd2bda4e	-0.04195624
44	0xbd590d69	-0.052991305
45	0x3dd8b79e	0.10581897
46	0xbe060463	-0.13087611
47	0x3c74b053	0.014934617
48	0xbd1db949	-0.03850678
49	0xbc1437c5	-0.0090465
50	0x3e0a0f6c	0.13482445
51	0xbe1a2e73	-0.15056781
52	0x3d06435f	0.032779094
53	0x3e240f1e	0.16021392
54	0x3d8aa90d	0.06770525
55	0xbdd4c206	-0.103885695
56	0x3ceefeb9	0.029174196
57	0xbdfede48	-0.124447405
58	0xbe1215fb	-0.14266197
59	0x3dd9c2cf	0.1063286
60	0x3d2d3f03	0.04229642
61	0x3db3cf3a	0.0877976
62	0xbdc85bca	-0.097831324
63	0xbd2b9928	-0.041894108

convs.0.drug__taken_by__patient.lin_r.weight f4 [64, 64]
0	0xbd9d4da6	-0.07680826
1	0x3e22c689	0.15896048
2	0x3d580ed1	0.052748505
3	0x3e329a54	0.17441684
4	0x3db8fd89	0.09032733
5	0xbcb9a250	-0.022660404
6	0xbe05d92f	-0.1307113
7	0xbb0542af	-0.0020333936
8	0x3a7e11fd	0.00096920115
9	0xbd632b7c	-0.05546139
10	0x3d32c47c	0.043644413
11	0x3da41787	0.080123
12	0x3d0757e6	0.03304281
13	0x3e2856fe	0.16439435
14	0xbc26ad68	-0.010173179
15	0xbd2a831f	-0.041628953
16	0x3d954ad3	0.07289662
17	0x3db2784f	0.08714353
18	0xbc864ed7	-0.016395016
19	0x3e22ab3d	0.15885635
20	0xbe3fd328	-0.18732893
21	0x3d94586f	0.0724343
22	0xbd5a2b84	-0.053264156
23	0xbd0acb72	-0.033885427
24	0xbe21dc67	-0.15806733
25	0xbd0b9b46	-0.034083627
26	0xbe28a092	-0.16467503
27	0x3c9c7a66	0.019101333
28	0x3e178677	0.14797388
29	0xbceb7be5	-0.028745601
30	0xbddd2476	-0.1079797
31	0x3e001e19	0.12511481
32	0x3d3f5c33	0.046718787
33	0x3ca9f0b7	0.020744665
34	0xbde8317d	-0.11337564
35	0xbc5b4443	-0.013382974
36	0xbd8aacdf	-0.06771254
37	0x3e0f74a3	0.14009337
38	0x3dc58487	0.09644418
39	0xbd5bf455	-0.05369981
40	0xbdba551a	-0.09098263
41	0x3d52484c	0.05133848
42	0xbdbb0771	-0.09132279
43	0x3c064454	0.008195002
44	0x3d923c6d	0.071404316
45	0x3deade08	0.1146813
46	0x3cf93579	0.030421006
47	0x3b5ca11b	0.0033665362
48	0x3e0daae6	0.13834724
49	0xbde4876e	-0.11158644
50	0x3d053df6	0.032529794
51	0x3df9550f	0.12174427
52	0x3da42511	0.08014882
53	0xbddcc992	-0.10780634
54	0xbde466a2	-0.11152388
55	0xbc2cea45	-0.010553901
56	0xbdf4580d	-0.11930857
57	0xbe0eb48c	-0.1393606
58	0xbe08b23d	-0.13349243
59	0xbd29a352	-0.04141552
60	0xbdc5aec2	-0.09652473
61	0xbbc63a98	-0.0060494654
62	0x3c821887	0.015880836
63	0x3da4cfe4	0.080474645
64	0xbd93f802	-0.07225038
65	0x3b6cfe4c	0.0036162315
66	0xbe2201f1	-0.15821053
67	0x3db3cd72	0.0877942
68	0x3e3db681	0.18526651
69	0xbda67f24	-0.08129719
70	0xbe37f51c	-0.17964596
71	0xbcb2dc26	-0.02183349
72	0xbd374065	-0.044739146
73	0xbc73f8f0	-0.014890894
74	0x3e0c0e20	0.13677263
75	0x3d9c4e1f	0.07632088
76	0x3e165830	0.14682078
77	0x3e2657f0	0.16244483
78	0x3d3da651	0.04630119
79	0xbe271752	-0.1631749
80	0x3e3c1696	0.18367991
81	0x3dbec821	0.09315515
82	0xbe2fbf91	-0.1716292
83	0xbe138abe	-0.14408395
84	0xbdb7a129	-0.08966286
85	0x3d4029c3	0.046914827
86	0x3caef795	0.02135829
87	0xbd7b4b86	-0.06135132
88	0xbe2dad38	-0.16960609
89	0xbe073b2f	-0.1320617
90	0xbc1b7848	-0.0094891265
91	0xbe373ff8	-0.17895496
92	0xbdda2ece	-0.106534585
93	0xbd13d373	-0.036090326
94	0xbe1a8782	-0.15090755
95	0x3df7780b	0.12083443
96	0xbd694872	-0.056953855
97	0x3bde98e7	0.0067931297
98	0xbe30a343	-0.1724978
99	0x3d947629	0.072491
100	0xbc40f373	-0.011776793
101	0x3e193c3b	0.14964382
102	0x3e3854ac	0.1800105
103	0xbe2614f0	-0.16218925
104	0xbdba4161	-0.09094501
105	0x3c3bceef	0.011462911
106	0xbe0f6c89	-0.14006247
107	0xbe0a62ba	-0.13514224
108	0xbce8e9cb	-0.028431794
109	0x3dc52e81	0.096280105
110	0x3e0ab6d1	0.13546301
111	0x3d39a5c4	0.045324102
112	0x3d38bf8e	0.045104556
113	0xbe10e1cc	-0.14148635
114	0x3c545dd6	0.012961825
115	0x3e39a911	0.181309
116	0xbd803946	-0.06260924
117	0xbce1b044	-0.02754987
118	0xbe26a45f	-0.1627364
119	0xbcea50f9	-0.028603064
120	0x3b1ef867	0.0024256946
121	0xbdc78734	-0.09742585
122	0xbb199ef1	-0.0023440684
123	0xbbdd1558	-0.006746929
124	0x3d5f6459	0.05453906
125	0xbd41165b	-0.04714046
126	0x3e03e638	0.1288079
127	0x3b293ee2	0.0025824835
128	0xbe2985c6	-0.16554937
129	0x3d0d4e0c	0.03449826
130	0xbd144408	-0.036197692
131	0x3d4f5718	0.05062017
132	0x3da7015b	0.081545554
133	0xbc4b0cb6	-0.012393167
134	0xbe2ff971	-0.17184998
135	0xbc5a5e26	-0.013328111
136	0x3d54a2c0	0.051913023
137	0xbde489f2	-0.111591235
138	0x3e374489	0.17897238
139	0x3e1ef7b9	0.15524186
140	0x3e078a7d	0.13236423
141	0x3e080f3c	0.13287061
142	0xbe0ab8ab	-0.13547008
143	0xbd2032c8	-0.03911093
144	0xbe00e15f	-0.12585972
145	0x3d74c423	0.059757363
146	0xbe41ed0f	-0.18938087
147	0xbc7945b2	-0.015214371
148	0xbe0d3d4c	-0.13792914
149	0x3cd1a324	0.025590487
150	0x3e115e03	0.14196019
151	0xbb6de517	-0.0036299878
152	0xbd46e717	-0.04856023
153	0xbdf80cfe	-0.12111853
154	0xbe066e9b	-0.1312813
155	0xbe5a0094	-0.21289283
156	0x3d8f635b	0.070013724
157	0x3d897e9c	0.06713602
158	0xbe19ac12	-0.15007046
159	0x3d600877	0.054695573
160	0x3e24a4be	0.16078469
161	0x3c4aa117	0.012367508
162	0x3cb9e41b	0.022691777
163	0x3dae38a6	0.085068986
164	0xbdecf9ca	-0.11571081
165	0x3e227fed	0.15869112
166	0xbd93b93b	-0.07213064
167	0xbbf4e6cd	-0.0074738027
168	0x3d478b3c	0.04871677
169	0xbd45804a	-0.04821805
170	0xbc473414	-0.0121584125
171	0x3d53be43	0.05169512
172	0x3e0a1e81	0.13488199
173	0x3d19046d	0.037357736
174	0xbd8c9ce6	-0.068658635
175	0x3e00bb97	0.1257156
176	0xbd19e2bc	-0.037569746
177	0xbd64a546	-0.05582168
178	0x3dd81101	0.10550118
179	0x3b7bcfed	0.0038423494
180	0x3e0b33e1	0.13594009
181	0x3e29b344	0.1657229
182	0xbe16d2ed	-0.147289
183	0x3cebe6e6	0.028796624
184	0xbd8382d5	-0.064214386
185	0xbdf51492	-0.11966814
186	0x3d2b08fb	0.04175661
187	0x3e1f96ce	0.15584871
188	0xbcde7da3	-0.027159518
189	0x3d54f1af	0.0519883
190	0x3e31700a	0.17327896
191	0x3e186e5f	0.14885853
192	0xbc855393	-0.016275203
193	0x3d3c8d68	0.046033293
194	0x3d7b8cda	0.061413623
195	0x3c551d0c	0.013007414
196	0x3cc050e6	0.023476075
197	0x3cd54ddf	0.026038108
198	0x3d3126fe	0.043250076
199	0xbd560a29	-0.052255783
200	0x3df18726	0.11793356
201	0xbd82f32e	-0.06394039
202	0xbd853437	-0.065041
203	0xbde3bc36	-0.11119883
204	0xbd6a145a	-0.057148315
205	0x3cc802b5	0.024415353
206	0x3e02edb0	0.12785983
207	0x3dedb945	0.11607603
208	0x3d9135ea	0.070903614
209	0xbdc5c50f	-0.096567266
210	0xbc9849ec	-0.018589936
211	0x3e282264	0.16419369
212	0xbc4f3b2e	-0.012648387
213	0x3c9d1113	0.01917318
214	0xbdf207e3	-0.118179105
215	0xbc2966a0	-0.010339409
216	0xbd84d03a	-0.064850286
217	0x3d0b3968	0.033990294
218	0xbd6435d4	-0.055715397
219	0xbc7ee3fc	-0.015557285
220	0xbc4555e3	-0.012044403
221	0xbdf48718	-0.119398296
222	0x3cb192d7	0.021676464
223	0x3d4defcc	0.050277516
224	0x3d481598	0.04884872
225	0xbdc27bc0	-0.0949626
226	0x3e06d9a9	0.13168968
227	0xbdbd46e2	-0.092420354
228	0x3c29e676	0.010369888
229	0x3cb3b77a	0.021938074
230	0x3cfc4341	0.030793788
231	0xbe4ea55a	-0.20180264
232	0xbdcb2a3f	-0.09920167
233	0x3dcdc8e8	0.100480855
234	0x3e01ca31	0.12674786
235	0x3c3c505f	0.011493771
236	0xbda13ee6	-0.07873325
237	0x3d95d04d	0.07315121
238	0xbdf25457	-0.11832493
239	0x3b6605b9	0.0035098626
240	0x3d84aceb	0.06478294
241	0x3bbe1fda	0.005802137
242	0x3d1a400f	0.037658747
243	0xbdc82c12	-0.09774031
244	0xbe086693	-0.13320379
245	0xbd5c272a	-0.053748287
246	0x3dfa7ac2	0.122304454
247	0xbd554571	-0.052068178
248	0xbd0bab46	-0.034098886
249	0x3d970a2e	0.073749885
250	0xbd2b0b2a	-0.041758694
251	0xbe104907	-0.14090358
252	0x3e04ebb7	0.12980543
253	0xbd7e0e50	-0.06202537
254	0xbe05a205	-0.13050087
255	0xbe172db0	-0.14763522

convs.0.patient__has_reaction__reaction.lin_l.weight f4 [64, 64]
0	0xbb5d0665	-0.0033725735
1	0x3d3d03d2	0.04614622
2	0xbde15319	-0.11002178
3	0xbd3585b4	-0.044316962
4	0x3e1dec67	0.15422212
5	0xbe3ab975	-0.18234809
6	0xbe288d5f	-0.16460179
7	0x3ce5172d	0.027965153
8	0x3c81c24c	0.015839718
9	0xbd0d2454	-0.034458473
10	0x3d182cc7	0.037152078
11	0x3ddaaeee	0.106778964
12	0x3e4c5ab1	0.19956471
13	0x3e462159	0.19348659
14	0xbd22bd8c	-0.039731547
15	0xbd4606c6	-0.048346303
16	0xbc57c1fa	-0.013168806
17	0xbd334c55	-0.043773968
18	0xbc295166	-0.010334348
19	0xbcdd31d5	-0.0270013
20	0xbe038233	-0.12842636
21	0x3e4b8706	0.19875726
22	0x3d16d5be	0.036824934
23	0xbd4339e7	-0.04766264
24	0xbca25433	-0.01981554
25	0xbd8c90fe	-0.068635926
26	0xbdb70a34	-0.08937493
27	0xbe07fd0e	-0.13280126
28	0x3c00b4c7	0.007855601
29	0x3d515f4f	0.051116284
30	0x3ca1d142	0.019753102
31	0x3d2fece8	0.04295054
32	0xbc9827d8	-0.018573686
33	0xbe35e0ff	-0.1776161
34	0xbd3983c0	-0.045291662
35	0x3e31481a	0.17312661
36	0x3d494c80	0.04914522
37	0xbc213c81	-0.009841085
38	0x3da8f29f	0.08249401
39	0x3ce690a9	0.028145151
40	0xbe31b437	-0.17353903
41	0x3d5ddf5f	0.0541681
42	0xbdd0fab9	-0.102040716
43	0xbdabd44c	-0.08390102
44	0x3e04dede	0.12975642
45	0x3d8644be	0.0655608
46	0x3e11aadd	0.14225335
47	0x3c17f09f	0.009273677
48	0x3c155c00	0.009116173
49	0xbdd58b4a	-0.10426958
50	0x3d397689	0.04527906
51	0xbcc34171	-0.023834916
52	0x3e4285c7	0.18996345
53	0xbc952b5c	-0.018209152
54	0xbabcf2a0	-0.001441557
55	0xbd1b327d	-0.037889946
56	0xbe15427a	-0.1457614
57	0xbd8a72ac	-0.06760153
58	0x3cd21ab6	0.025647502
59	0xbba38659	-0.0049903807
60	0xbdb5f2f8	-0.08884233
61	0x3df00779	0.11720175
62	0xbd7a4c7f	-0.06110811
63	0xbd3a6c46	-0.045513414
64	0xbd0138d6	-0.031548344
65	0x3e2872a8	0.16449988
66	0xbdb76824	-0.0895541
67	0xbd778de8	-0.060438067
68	0x3dc98578	0.0983991
69	0xbd47fc00	-0.04882431
70	0xbe30675c	-0.17226928
71	0x3e24b679	0.16085233
72	0x3d51ba15	0.051202852
73	0xbdd68268	-0.10474092
74	0x3e287518	0.16450918
75	0xbd09512b	-0.033524673
76	0x3e2fdbad	0.17173643
77	0x3daf4589	0.08558185
78	0x3d0b5f81	0.034026626
79	0xbc99ab26	-0.018758368
80	0xbd856389	-0.065131254
81	0x3e26ed40	0.16301441
82	0xbd2bc49f	-0.04193556
83	0x3b503d95	0.0031774987
84	0x3cf6e38b	0.030137798
85	0x3dd69fe5	0.10479716
86	0x3db86346	0.0900331
87	0xbe1f8001	-0.15576173
88	0xbe34c929	-0.17654862
89	0xbc1ebdf0	-0.009688839
90	0x3cc81fec	0.024429284
91	0xbe251fc4	-0.16125399
92	0x3d81795d	0.06321976
93	0xbe0bbcc7	-0.13646232
94	0x3d2dd9b8	0.04244396
95	0x3e28f63f	0.16500185
96	0x3cdb59b6	0.026776176
97	0xbd834b42	-0.06410839
98	0xbd39bee6	-0.04534807
99	0x3d3d5cf3	0.04623122
100	0xbdac6907	-0.0841847
101	0x3d853c9a	0.065056995
102	0x3dd9316a	0.10605128
103	0x3cc1ec19	0.02367215
104	0xbdd16385	-0.1022406
105	0x3d48a760	0.048987746
106	0xbda20c9b	-0.079125606
107	0xbe17028d	-0.14747067
108	0xbb209250	-0.0024501272
109	0x3e347f5d	0.1762671
110	0x3d88d52f	0.066812865
111	0xbb99c1bc	-0.0046922844
112	0x3e106feb	0.14105193
113	0xbdb299a5	-0.087207116
114	0x3d3a9371	0.045550767
115	0x3dd35544	0.103189975
116	0x3db09db9	0.08623833
117	0x3c1083f9	0.008820527
118	0xbe35450e	-0.17702124
119	0xbe2e5e89	-0.1702825
120	0xbbbdcf7c	-0.0057925563
121	0xbe38ed10	-0.18059182
122	0x3d3af9ac	0.045648262
123	0x3e079bd0	0.13243032
124	0xbe2a6417	-0.16639744
125	0xbd32c414	-0.043644026
126	0x3e311fe3	0.1729732
127	0x3dcf9326	0.10135488
128	0x3ce44f86	0.027869951
129	0x3e27b330	0.16376948
130	0xbddfe499	-0.109322734
131	0x3e0fe9f3	0.14054088
132	0x3c0c96c1	0.008580864
133	0xbdb5c99e	-0.08876346
134	0xbe0fb413	-0.14033537
135	0xbd0b5068	-0.03401223
136	0x3d0d094a	0.034432687
137	0xbe071d43	-0.13194756
138	0x3c625897	0.013815067
139	0xbda78cf2	-0.0818118
140	0x3dc7f6fe	0.09763907
141	0x3cdae4ab	0.026720366
142	0xbe18996c	-0.14902276
143	0xbe17f94e	-0.14841196
144	0xbd15fe76	-0.036619626
145	0x3e1cc950	0.1531117
146	0xbcc490a9	-0.02399476
147	0xbd75ab57	-0.059977856
148	0x3d98a83e	0.07453965
149	0x3d451be9	0.04812232
150	0xbd5e4858	-0.05426821
151	0x3da6c061	0.08142162
152	0xbe08b5e7	-0.1335064
153	0xbe38e774	-0.18057042
154	0xbd6fa4b6	-0.05850669
155	0xbc636b14	-0.01388051
156	0xbde3b621	-0.11118723
157	0x3d2739df	0.040826675
158	0xbdaf1469	-0.08548815
159	0x3d302c68	0.0430111
160	0x3cf34491	0.029695781
161	0x3aee4fff	0.00181818
162	0xbdf3525f	-0.118809454
163	0x3dc55148	0.09634644
164	0xba846772	-0.001010163
165	0x3dba5252	0.090977326
166	0xbdc2a1d0	-0.095035195
167	0x3d6b89d9	0.05750451
168	0xbd10fc29	-0.03539673
169	0xbdf149e6	-0.11781673
170	0x3d7503ee	0.0598182
171	0xbcc79de2	-0.024367277
172	0x3e0afab3	0.13572197
173	0x3dbe5254	0.092930466
174	0x3da8ebed	0.08248124
175	0x3cb571f3	0.022149062
176	0x3d3274b1	0.043568317
177	0x3c7577b5	0.014982154
178	0xbd5fe01a	-0.05465708
179	0x3e1952d5	0.14973004
180	0x3cedcce1	0.029028358
181	0x3cedf896	0.0290492
182	0x3db2985f	0.08720469
183	0xbe184063	-0.14868312
184	0x3c061d98	0.008185767
185	0xbd76e877	-0.06028029
186	0xbc1f3a10	-0.009718433
187	0xbc981700	-0.018565655
188	0xbe158515	-0.14601548
189	0xbd58b5ff	-0.05290794
190	0xbd7e1373	-0.062030267
191	0x3dfa987a	0.12236114
192	0x3d6869f0	0.056741655
193	0xbd33eb0b	-0.043925326
194	0xbd9cc9d4	-0.07655683
195	0x3db1e0c1	0.086854465
196	0x3d661fe4	0.056182757
197	0x3da29a8b	0.07939633
198	0x3d21d73e	0.03951191
199	0x3d28c995	0.04120787
200	0xbe4f2507	-0.20228969
201	0x3d2cb9e5	0.04216947
202	0x3daa1241	0.08304263
203	0x3dbd29d3	0.09236493
204	0x3d5313ad	0.051532436
205	0xbe009df5	-0.12560256
206	0x3d5c18b2	0.05373449
207	0x3cda8aa3	0.026677435
208	0xbe7995c3	-0.24373536
209	0xbdc64bf1	-0.096824534
210	0xbdbd0d76	-0.09231083
211	0xbcbdf9c4	-0.023190387
212	0xbd130a50	-0.035898507
213	0xbe22da0c	-0.15903491
214	0xbd60925e	-0.054827087
215	0x3e1aeffe	0.15130612
216	0x3b4941ee	0.0030709463
217	0xbcc5e58b	-0.024157306
218	0x3e226a22	0.15860799
219	0x3d405dee	0.04696458
220	0x3d5611f6	0.052263223
221	0x3c456251	0.012047366
222	0xbdb47eb1	-0.08813227
223	0xbe61051b	-0.21974604
224	0x3ca12c75	0.01967452
225	0x3de6e74a	0.11274584
226	0x3d14b849	0.03630856
227	0x3dcdcc3a	0.10048719
228	0x3d00aa21	0.031412248
229	0x3d332f9d	0.04374658
230	0xbe835ac5	-0.2565519
231	0x3e48ed9b	0.1962189
232	0xbd6eafe7	-0.058273222
233	0x3e125da1	0.14293529
234	0x3c37fd14	0.011229772
235	0xbd0b9f4c	-0.034087464
236	0xbc9cea25	-0.019154618
237	0x3dbce2f0	0.092229724
238	0x3cd3f659	0.025874304
239	0xbdb532c6	-0.08847575
240	0xbd562fb1	-0.052291576
241	0xbd702070	-0.058624685
242	0x3e079af1	0.13242699
243	0xbdd3aca8	-0.10335666
244	0xbd5aa259	-0.053377483
245	0xbc366358	-0.011132084
246	0x3c9af92f	0.018917648
247	0xbde0aa39	-0.109699674
248	0x3de87d44	0.113520175
249	0x3dae9ea4	0.08526352
250	0x3df790b8	0.1208815
251	0x3d83c513	0.06434073
252	0x3dff4221	0.12463785
253	0xbda3228f	-0.07965576
254	0x3e215972	0.15756777
255	0xbc9adeec	-0.018905126

convs.0.patient__has_reaction__reaction.lin_l.bias f4 [64]
0	0xbe43064c	-0.19045371
1	0xbd353c64	-0.044247046
2	0x3d3dc0ef	0.046326574
3	0xbd9e4884	-0.07728675
4	0xbc9a9471	-0.01886961
5	0xbe10a548	-0.1412555
6	0xbdf7b122	-0.12094332
7	0xbe3df338	-0.18549812
8	0xba87433c	-0.001031972
9	0x3d81ddb2	0.06341113
10	0xbd21b5a8	-0.03947988
11	0xbcad3006	-0.021141063
12	0xbdaa99bc	-0.08330104
13	0xbda8ca1e	-0.08241676
14	0xbdb8c916	-0.09022729
15	0x3e256a70	0.16153884
16	0xbdcdf646	-0.100567386
17	0xbe323771	-0.17403962
18	0x3dbf1cee	0.0933169
19	0x3dd58c9c	0.1042721
20	0x3d1ee279	0.0387902
21	0xbdcf7632	-0.10129966
22	0x3cd5466a	0.026034553
23	0xbd40d7c7	-0.04708078
24	0x3c86a2cd	0.016435051
25	0x3c3c4d82	0.011493089
26	0x3d143b5b	0.03618942
27	0xbe285153	-0.16437273
28	0xbdf072fd	-0.11740682
29	0x3d75c673	0.06000371
30	0xbd08ee5c	-0.033430442
31	0xbdb38703	-0.08765986
32	0xbdf53af6	-0.119741365
33	0x3cc36da8	0.023856
34	0xbdcaf3e0	-0.09909797
35	0xbdc812a5	-0.09769181
36	0x3d43c86f	0.04779857
37	0xbe0f786f	-0.14010786
38	0x3d0d52f2	0.03450293
39	0x3ccbe5b5	0.024889806
40	0x3cf8fcd4	0.030393995
41	0x3d13d54d	0.03609209
42	0x3d75a6a5	0.059973378
43	0xbd7be250	-0.061495125
44	0xbbf0d160	-0.007349178
45	0xbca79613	-0.020457303
46	0x3e10a1d0	0.14124227
47	0xbc3f28a5	-0.011667405
48	0xbdf7eac2	-0.121053234
49	0xbe0041bc	-0.12525076
50	0xbe278980	-0.16361046
51	0xbd6106f2	-0.054938264
52	0x3d678dcb	0.05653171
53	0x3d280980	0.041024685
54	0x3d7c0f5f	0.061538097
55	0x3a8b8295	0.0010643775
56	0xbdd1ae3c	-0.10238311
57	0x3d8e6251	0.06952346
58	0xbde890cf	-0.11355745
59	0xbe18e2b1	-0.14930226
60	0xbda019db	-0.078174315
61	0xbdcb6554	-0.09931436
62	0x3d6efda5	0.058347363
63	0xbce2d94f	-0.027691511

convs.0.patient__has_reaction__reaction.lin_r.weight f4 [64, 64]
0	0xbc972f39	-0.018455135
1	0xbe48fb27	-0.19627057
2	0xbc1a0d8f	-0.009402647
3	0xbd0ff711	-0.03514773
4	0xbd91bc7d	-0.071160294
5	0xbdfebcfa	-0.12438388
6	0x3d752cce	0.059857182
7	0x3daa492d	0.083147384
8	0xbe1d2cc8	-0.15349114
9	0xbd0a7664	-0.033804312
10	0x3d854f22	0.06509234
11	0xbcac7938	-0.021053895
12	0x3d16d345	0.036822576
13	0xbdcc8141	-0.09985591
14	0x3da0eaff	0.07857322
15	0x3de9af74	0.11410418
16	0x3d225875	0.03963514
17	0x3d764560	0.060124755
18	0x3c4d8648	0.012544222
19	0x3d29ad81	0.04142523
20	0xbd996355	-0.07489649
21	0xbdd0cbb5	-0.10195104
22	0x3d85c18e	0.06531058
23	0x3db10b36	0.086447164
24	0xbcd3a182	-0.025833849
25	0x3d90e33f	0.07074594
26	0xbc8944a0	-0.016756356
27	0x3d3eeb5a	0.046611167
28	0xbd43c40b	-0.047794383
29	0x3d830f85	0.063994445
30	0xbd88f6a0	-0.06687665
31	0x3cc9c4d3	0.024629986
32	0xbd8cc8b3	-0.06874218
33	0xbcb85338	-0.02250062
34	0x3d6c231b	0.057650667
35	0xbddcaabe	-0.10774754
36	0x3d6808c2	0.056648977
37	0x3d9d95c7	0.076945834
38	0x3d247ea2	0.04015983
39	0x3e599491	0.2124808
40	0xbe0359ad	-0.12827177
41	0xbd6fbf54	-0.058532074
42	0xbd4b80c2	-0.04968334
43	0x3d3e28eb	0.04642574
44	0x3dd6666c	0.10468754
45	0x3e247b2c	0.16062611
46	0x3d8f94fb	0.07010838
47	0xbb3ef66d	-0.002913858
48	0xbd196e9f	-0.037459012
49	0xb8bc9dea	-8.993952e-05
50	0xbdb9fcf4	-0.0908145
51	0xbb9f8aea	-0.004868855
52	0xbda856ca	-0.08219679
53	0x3e1eaf44	0.15496546
54	0x3d8ae432	0.06781806
55	0xbd42426c	-0.047426626
56	0xb9e74142	-0.00044108374
57	0x3d1daeb4	0.038496688
58	0xbd85963d	-0.06522796
59	0x3a7c3a10	0.0009621689
60	0xbc0f9ee3	-0.008765909
61	0xbe10224b	-0.14075582
62	0x3d6799ca	0.05654315
63	0x3e06231c	0.1309933
64	0xbd597172	-0.053086706
65	0x3d686233	0.056734275
66	0xbceac4fe	-0.028658386
67	0x3d78acc0	0.060711622
68	0x3caa99f8	0.020825371
69	0xbd852b37	-0.06502383
70	0xbb46c02d	-0.0030326948
71	0x3d04e6f6	0.032446824
72	0xbc323503	-0.010876897
73	0x3d127853	0.03575928
74	0x3d2e6edc	0.042586192
75	0xbce2db57	-0.02769248
76	0x3dccb19a	0.09994812
77	0x3c0e56d2	0.008687692
78	0xbb1f4a45	-0.0024305743
79	0xbda1b4aa	-0.07895787
80	0x3db49af7	0.0881862
81	0x3dc74228	0.09729415
82	0x3cc29ded	0.023756946
83	0xbd1b1c68	-0.037868887
84	0xbb428ebe	-0.0029687132
85	0xbd784f5f	-0.06062257
86	0x3da2c0ce	0.07946931
87	0xbd44c24b	-0.048036855
88	0x3cb83338	0.02248536
89	0x3db51230	0.088413596
90	0xbcf81b86	-0.030286562
91	0x3ceb2308	0.028703228
92	0xbd2a6db0	-0.041608512
93	0x3de14a23	0.110004686
94	0x3d710af6	0.058848344
95	0xbd44bfe8	-0.04803458
96	0xbd3bab94	-0.045817927
97	0x3d7064be	0.058689825
98	0xbdccce3f	-0.10000276
99	0xbdd8b76c	-0.1058186
100	0xbe0b2bbd	-0.13590904
101	0xbbaf1be5	-0.0053439015
102	0x3ce738e5	0.028225372
103	0x3d4a4879	0.04938552
104	0x3d61a06a	0.055084623
105	0xbcea1a71	-0.028577061
106	0x3e319eb0	0.1734569
107	0x3d21a0ef	0.03946012
108	0x3e0d3510	0.13789773
109	0x3e1943ec	0.14967316
110	0xbe0dd937	-0.13852392
111	0x3cf88e18	0.030341193
112	0x3e0b2150	0.13586926
113	0x3c612d15	0.013743659
114	0x3d2f8676	0.04285284
115	0x3da3b8a3	0.07994201
116	0x3d06b90f	0.03289133
117	0x3dd5dc1b	0.104423724
118	0xbcdb52e9	-0.026772933
119	0x3e0d9a8c	0.13828486
120	0x3cd3ea7f	0.025868652
121	0x3bfe4e95	0.0077608326
122	0xbbd423fa	-0.0064740153
123	0x3d8011c8	0.062533915
124	0x3d86f7d5	0.06590239
125	0xbe014926	-0.1262556
126	0x3bb305b2	0.0054633254
127	0x3daa3ae1	0.083120115
128	0x3c980f3e	0.018561956
129	0xbe38dc37	-0.18052755
130	0x3e1edd09	0.15514006
131	0x3d0e50d7	0.034745064
132	0x3cb75b90	0.022382528
133	0x3e3cc0c6	0.18432912
134	0xbe259e31	-0.16173626
135	0x3dd972ad	0.10617576
136	0xbde12191	-0.109927304
137	0x3e2e0cdc	0.16997093
138	0x3e038537	0.12843786
139	0xbd85e630	-0.065380454
140	0x3e213a36	0.15744862
141	0xba8a7fe6	-0.0010566681
142	0x3d91fdfc	0.07128522
143	0xbd68e6b0	-0.056860626
144	0xbd6d92f8	-0.05800149
145	0xbd0a6865	-0.033790965
146	0x3d23555c	0.039876327
147	0x3e858a0f	0.26081893
148	0x3e553fdf	0.20825146
149	0x3dc73739	0.0972733
150	0xbdb83519	-0.089945026
151	0x3daceffd	0.08444212
152	0x3e036628	0.12831938
153	0xbe2fe5cf	-0.17177509
154	0xbd9b8f10	-0.075956464
155	0xbe1be2b3	-0.15223198
156	0xbd42a318	-0.04751882
157	0x3e2b3c2e	0.16722175
158	0xbe178d39	-0.14799966
159	0x3daf98df	0.0857408
160	0xbe220f19	-0.15826072
161	0x3dabe324	0.08392933
162	0xbcfec1a8	-0.031098202
163	0x3dcc0efe	0.09963797
164	0x3dfb8ba4	0.12282494
165	0x3d8e3269	0.06943209
166	0xbe0fdba2	-0.14048627
167	0xbe1af547	-0.15132628
168	0xbd1c5b64	-0.038173094
169	0x3d70a31c	0.058749303
170	0x3dc8f306	0.09811978
171	0x3dba6706	0.091016814
172	0x3c4d4648	0.012528963
173	0xbd8ef062	-0.06979443
174	0xbd905e76	-0.07049267
175	0xbd3aaabc	-0.04557298
176	0x3c1345a2	0.00898877
177	0xbe5e4a32	-0.21707991
178	0x3b09ea5a	0.0021044225
179	0x3e90dc26	0.2829296
180	0xbd91f2f1	-0.071264155
181	0xbdb7d59a	-0.08976288
182	0x3dc352b9	0.095372625
183	0xbdc94182	-0.09826948
184	0xbdc4e993	-0.09614863
185	0x3e0c575c	0.137052
186	0x3d47a0f3	0.048737478
187	0x3e1b8faf	0.1519153
188	0xba59fb62	-0.0008315352
189	0x3d21352f	0.03935736
190	0x3d213181	0.03935385
191	0x3e3b5c30	0.18296885
192	0x3e1a59bd	0.15073295
193	0xbd8e9985	-0.06962875
194	0xbdf79150	-0.12088263
195	0x3d285fc9	0.041106973
196	0xbcd9502f	-0.026527492
197	0xbd923548	-0.07139069
198	0x3e29ed34	0.16594392
199	0x3d450fa0	0.048110604
200	0xbcd2fda6	-0.025755715
201	0x3d4506e3	0.04810227
202	0xbde4da1c	-0.111744136
203	0xbd6ac45c	-0.05731617
204	0xbaff7635	-0.0019490184
205	0xbd478f3e	-0.04872059
206	0xbe0bb56e	-0.13643429
207	0x3e649d11	0.22325541
208	0xbc6de313	-0.014519471
209	0x3df2de6f	0.11858832
210	0x3db9b9fd	0.090686776
211	0x3ddc28ee	0.10749994
212	0xbd127821	-0.035759095
213	0x3e0b6025	0.13610895
214	0x3d903cf9	0.070428796
215	0x3e33cba4	0.17558151
216	0x3c50a898	0.012735508
217	0xbe2b75c0	-0.16744137
218	0x3dd4ac98	0.10384482
219	0xbdca1b39	-0.098684736
220	0x3a74c53c	0.00093372515
221	0x3db3d96d	0.08781705
222	0xbc657414	-0.014004726
223	0x3d8dd962	0.06926228
224	0xbd0446ff	-0.03229427
225	0x3e0c7aad	0.13718672
226	0xbc55d8cc	-0.013052177
227	0x3d5c9a6f	0.053858217
228	0xbdf8c724	-0.12147358
229	0xbce726b2	-0.028216694
230	0xbe4df395	-0.2011245
231	0x3e00d894	0.12582618
232	0xbd81fc31	-0.0634693
233	0xbd0fef84	-0.03514053
234	0xbdaa5d71	-0.08318604
235	0xbccb8172	-0.024841998
236	0x3d25dfbf	0.040496584
237	0x3d96827b	0.07349106
238	0xbd0bc7b3	-0.034125995
239	0xbcc5e238	-0.024155721
240	0xbe08748d	-0.1332571
241	0xbbb971a8	-0.005659301
242	0x3bc875df	0.006117567
243	0xbe77b935	-0.24191745
244	0xbc23c620	-0.009995967
245	0xbce446ff	-0.027865885
246	0xbe1e4d3e	-0.15459153
247	0xbd93e040	-0.07220507
248	0xbd9ee962	-0.07759358
249	0x3c636e40	0.013881266
250	0x3d5f8476	0.054569684
251	0xbe3cd1b7	-0.18439375
252	0xbde2d9f8	-0.110767305
253	0x3de28dac	0.11062178
254	0x3c86e2a7	0.016465498
255	0x3dee9268	0.116490185
